catkin_ws/src/dnn_mpc/output_dir/rpyth_mpc/f450/weights/wt_layers_3.npy (npy, 1152 bytes, 1 tensors)

array f4 [64, 4]
0	0x3b91b5a0	0.0044467
1	0x3b8f9401	0.004381657
2	0xbda8737d	-0.08225153
3	0xbc8d0363	-0.017213529
4	0x3ca3ea3c	0.020009153
5	0xbb90e1ea	-0.0044214623
6	0xbc200bb8	-0.009768419
7	0x3dbb8059	0.0915534
8	0xbb931566	-0.004488635
9	0xbc839d6b	-0.016066274
10	0xbdc4afd4	-0.09603849
11	0x3c51f8fe	0.012815712
12	0x3c62ebc5	0.013850157
13	0x3bd4bfeb	0.006492605
14	0x3da213d9	0.07913942
15	0x3c8b3c71	0.016996594
16	0x3c036810	0.008020416
17	0x3d1a5cb1	0.037686054
18	0x3e0e7c95	0.13914712
19	0x3caab683	0.020838981
20	0x3acd49e2	0.0015662278
21	0xbb8b9771	-0.0042599966
22	0xbc3dd148	-0.011585541
23	0x3e328a1c	0.17435497
24	0xbbc81af7	-0.00610673
25	0x3cb0a34b	0.02156224
26	0xbda09beb	-0.07842239
27	0xbc45add5	-0.012065371
28	0xbd57fe3f	-0.052732702
29	0x3c7909dd	0.0152001055
30	0xbe21e77b	-0.15810959
31	0x3cb8e712	0.02257112
32	0x3c6c1da1	0.014411361
33	0x3b4592ae	0.0030147242
34	0x3da878f3	0.08226194
35	0xbce57fde	-0.028015073
36	0x3c1b5224	0.009480033
37	0xbc0e61d1	-0.008690313
38	0x3e043edf	0.12914608
39	0xbc272f86	-0.010204202
40	0xbcceae63	-0.025229638
41	0xbd014eb5	-0.0315692
42	0xbec48b99	-0.38387755
43	0x3dac5150	0.08413947
44	0xbbbf18be	-0.005831807
45	0xbd5d3260	-0.05400312
46	0x3d717464	0.05894889
47	0x3cbf8c16	0.023382228
48	0x3cfb6fb2	0.030692909
49	0xbc556df6	-0.013026705
50	0x3be811b9	0.007082191
51	0xbd8667a6	-0.06562738
52	0xbb13989d	-0.0022521385
53	0xbd61b8cc	-0.055107877
54	0xbd152541	-0.03641248
55	0xbd28d76a	-0.04122106
56	0xbc666067	-0.01406107
57	0xbcf36729	-0.029712277
58	0x3e1495db	0.1451029
59	0x3c13b0e8	0.009014346
60	0x3b03ce21	0.0020111876
61	0x3bce8524	0.0063024927
62	0x3baac5e9	0.005211581
63	0x3e1f9ac0	0.15586376
64	0x3c068848	0.008211203
65	0xbc1e18a0	-0.009649426
66	0x3d9b6b1a	0.075887874
67	0x3d4e298e	0.0503326
68	0xbba8a15e	-0.0051461896
69	0x3b42270e	0.002962533
70	0xba68d916	-0.0008882446
71	0x3eac51df	0.33656213
72	0x3b10b699	0.0022081493
73	0xbd22aca9	-0.039715443
74	0xbda405a0	-0.080088854
75	0x3c193800	0.00935173
76	0x3bbdc42c	0.005791208
77	0x3b36ca91	0.0027891735
78	0x3dea5b5a	0.11443205
79	0xbaa62c4c	-0.0012677996
80	0x3cb11c36	0.021619897
81	0x3be7851e	0.0070654294
82	0xbd3f1c9f	-0.046658155
83	0x3d79a084	0.060944095
84	0xbd47181a	-0.04860697
85	0x3c3e8a0d	0.011629594
86	0x3caa1cae	0.020765629
87	0xbd07e37c	-0.03317593
88	0x3b01a86f	0.0019784232
89	0x3b9854b2	0.0046487683
90	0x3efed832	0.4977432
91	0x3da3a31f	0.07990097
92	0xbc936580	-0.017992735
93	0xbd72dba5	-0.0592915
94	0xbd2e1ec5	-0.042509813
95	0x3c055e1e	0.008140115
96	0xbb83f0d9	-0.004026514
97	0x3cf56ca8	0.029959038
98	0x3d7b6ab4	0.061381057
99	0x3caacb4e	0.020848896
100	0xbb9e3bca	-0.0048289048
101	0xbe760a59	-0.24027385
102	0x3bbcc1d5	0.0057604113
103	0xbc937d45	-0.01800407
104	0x3adaea0a	0.0016701829
105	0xbda7352b	-0.08164438
106	0xbdc4b69e	-0.09605144
107	0xbb58636d	-0.0033018247
108	0xbc7de1ac	-0.015495699
109	0xbb57020a	-0.0032807612
110	0xbd8f2610	-0.06989682
111	0x3d30972f	0.04311293
112	0x3b7df20c	0.0038749008
113	0x3e7d5e2d	0.24742956
114	0x3c4595d5	0.0120596485
115	0xbc8bb0a1	-0.017051997
116	0xbabebfbe	-0.0014552993
117	0x3bb680a3	0.005569534
118	0x3dc6cdb9	0.09707207
119	0xbd198879	-0.037483666
120	0xbc3f030f	-0.011658444
121	0xbaf6da8c	-0.0018833443
122	0x3dd9e18c	0.10638723
123	0x3bda1b30	0.006656073
124	0x3bca9007	0.00618172
125	0x3aab641a	0.0013076097
126	0xbdff295b	-0.1245906
127	0xbc4c4748	-0.012468167
128	0xbcf95405	-0.030435571
129	0x3d82225e	0.06354211
130	0xbd101b3e	-0.03518223
131	0xbc82a43c	-0.015947454
132	0x3e17f68b	0.14840142
133	0x3c4a5ae6	0.012350773
134	0xbd4d2fbf	-0.050094362
135	0x3d78aa9d	0.060709585
136	0x3a95e70a	0.0011436653
137	0x3bc73bbe	0.00608012
138	0xbdbd92bf	-0.09256505
139	0xbc18a584	-0.009316806
140	0xbb07d9a2	-0.0020729084
141	0x3c768424	0.015046153
142	0x3e0140b9	0.12622346
143	0xbc0a2677	-0.008432022
144	0x3c10cca2	0.008837851
145	0x3bed24a4	0.007237034
146	0x3dddae48	0.10824257
147	0xbc628809	-0.013826379
148	0xbb06dbd4	-0.0020577805
149	0x3c780008	0.015136726
150	0x3d9da33b	0.07697149
151	0xbd2f1907	-0.042748477
152	0x3c89ddfc	0.016829483
153	0x3cb717c6	0.022350203
154	0xbe1e0eab	-0.15435283
155	0xbc3b2138	-0.011421494
156	0xbcceda08	-0.02525045
157	0xbc9a93f6	-0.018869381
158	0x3d2826c0	0.04105258
159	0xbd9122be	-0.07086705
160	0x3cb003b6	0.021486145
161	0xbc381da4	-0.011237536
162	0xbcad1ae4	-0.021130987
163	0xbd8c3503	-0.06846049
164	0x3b42420e	0.0029641422
165	0xbb87345f	-0.004126116
166	0x3bb4e7f2	0.005520814
167	0x403ac57a	2.918303
168	0xbc4381f6	-0.011932841
169	0xbc052573	-0.008126604
170	0x3d9c9dd9	0.076472946
171	0x3d1a03d0	0.037601292
172	0x3d2c8f44	0.042128816
173	0x3adf2830	0.0017025527
174	0x3de4bf6a	0.11169322
175	0xbcc60344	-0.024171479
176	0xbe1969d7	-0.14981781
177	0xbd793ca1	-0.060848836
178	0x3e61995f	0.22031163
179	0x3d200fba	0.039077498
180	0xbc8a69a4	-0.016896077
181	0xbc60afe7	-0.013713813
182	0x3dd2e247	0.10297065
183	0x3a091c29	0.00052303314
184	0x3a838b05	0.0010035938
185	0x3c61f194	0.013790507
186	0x3dc32a03	0.095294975
187	0x3c4ecf96	0.0126227345
188	0x3cca7ef6	0.024718743
189	0x3bf3d24b	0.0074408404
190	0xbe1d0529	-0.15334
191	0x3cdc1911	0.026867421
192	0xbc674693	-0.014115947
193	0x3af10f41	0.0018391387
194	0xbde19d71	-0.11016358
195	0xbb4e8079	-0.003150968
196	0xbe8453cd	-0.25845185
197	0xbacdd0b8	-0.0015702462
198	0xbc0e388c	-0.008680474
199	0xbd0769e3	-0.033059966
200	0xbc334a37	-0.010942987
201	0x3aeb6f5b	0.0017962264
202	0xbdecaf98	-0.11556929
203	0xbbc3a009	-0.0059700054
204	0xbbded5aa	-0.006800373
205	0x3d23f931	0.04003257
206	0xbcc53194	-0.024071492
207	0xbd6e2eb4	-0.05815001
208	0x3d4c22d2	0.049837895
209	0x3c477e98	0.012176178
210	0xbe2e1ea3	-0.17003874
211	0x3c97ffcd	0.018554593
212	0xbc9f7824	-0.019466467
213	0xbbf8d87e	-0.0075941673
214	0xbd6106b5	-0.054938037
215	0x3d5658e7	0.052330878
216	0xbd512bef	-0.05106729
217	0xbb8bce42	-0.004266531
218	0xbd0d8f13	-0.034560274
219	0x3d5c8700	0.053839684
220	0x3b9c8552	0.004776635
221	0x3c01f588	0.007932074
222	0xbe07f6d7	-0.13277756
223	0x3adee9c6	0.0017006926
224	0xbbf2fd9e	-0.0074154874
225	0x3c779b02	0.01511264
226	0x3d828731	0.06373442
227	0x3d786d91	0.060651366
228	0x3b3a156a	0.0028394111
229	0x3c1224e7	0.008919931
230	0xbb2174dd	-0.0024636306
231	0x3e87375e	0.2640943
232	0x3b292d42	0.002581433
233	0xbb29ca58	-0.002590796
234	0xbdbd30a0	-0.0923779
235	0x3cf65dc0	0.030074
236	0x3a91a7ce	0.0011112632
237	0xbbfd9bfb	-0.0077395416
238	0xba8c907b	-0.0010724211
239	0xbde4072f	-0.11134183
240	0xbceeb68b	-0.029139778
241	0xbcbd7c0f	-0.023130445
242	0x3d3209ac	0.043466255
243	0x3ce732c4	0.02822245
244	0x3e721fb9	0.23644914
245	0x3ae834f4	0.0017715977
246	0xba319e30	-0.0006775586
247	0xbcb04464	-0.021516986
248	0x3c160fd4	0.009159047
249	0xbc36726e	-0.011135681
250	0xbb71d2d7	-0.0036899352
251	0x3db8476c	0.08997998
252	0xbbb0f6bf	-0.005400508
253	0xbc026f2b	-0.007961075
254	0x3dd1232f	0.10211789
255	0x3b010332	0.0019685742
