catkin_ws/src/dnn_mpc/output_dir/rpyth_mpc/f450/weights/wt_layers_1.npy (npy, 2688 bytes, 1 tensors)

array f4 [10, 64]
0.26582897 -0.3924739 -0.294475 -0.08382513 -0.051099464 -0.4061942 -0.98432493 -0.16612296
-0.2613266 -0.029550193 -0.09160806 0.05184752 -0.20718753 0.0242892 0.5571898 -0.2425888
-0.06036683 0.21931246 -0.42276657 0.36189303 -0.35729542 0.5772721 -0.0028074111 0.15880369
0.42180824 0.062452227 0.25583336 -0.005481847 0.20996693 0.024351116 0.042139195 0.74059844
0.38030392 0.13716592 -0.69631374 -0.7020986 0.07290682 -0.10498988 0.33486763 0.01389172
0.17566659 -0.33727515 -0.7160607 0.008987202 0.29996526 -0.07559223 -0.27872574 0.47466722
-0.28386253 -0.13616402 -0.14609301 0.050121024 -0.3060143 0.0080485735 0.7997012 -0.39383507
0.2340318 0.9183533 -0.082224324 -0.598875 0.07931091 -0.37599716 -0.23283684 0.014092824
-1.0682542 0.57663345 0.5066685 1.081482 -0.016952505 0.7486579 -0.009947405 0.25959265
0.10300412 0.050667696 0.22031698 0.11024343 0.18664342 -0.44463643 0.047593158 -0.24743563
-0.0697655 0.03777005 -0.111272 -0.51959324 -0.35432538 -0.40356943 -0.3509208 0.4612444
-0.3597523 0.4144546 -0.021404471 0.13564673 0.006098864 -0.0066023576 -0.10598248 -0.022474803
-0.0764801 -0.9681981 -0.4580922 0.18501446 -0.27863514 -0.60414946 -0.37647775 0.008198623
-0.24929233 -0.046097234 -0.15123054 0.5954019 0.04536793 -0.3502152 0.16217631 0.2761605
-0.003600482 -0.14802839 0.7808564 -0.11811982 -0.118391365 0.12718391 0.35477898 0.058284264
-0.8943594 0.4732825 0.52625644 -0.53565484 -0.3436875 0.12805374 0.6295242 -0.12646107
0.04462466 -0.06392227 -0.72784686 -0.049992383 0.0466222 0.40347463 0.06661761 0.019555146
-0.09751812 -0.060785823 -0.21734247 0.057465553 0.21364003 0.4800825 0.06293368 0.23088922
0.004189998 -0.45637095 -0.5899098 -0.269691 -0.1536571 -0.3163031 -0.3070662 0.043135405
0.27316192 -0.6309079 -0.39387527 0.22028604 -0.7665297 -0.012121437 0.3364696 -0.0147614265
-0.40085015 -0.17198096 -0.020504536 0.19859706 0.017917555 0.12538397 0.1229701 -0.04932442
-0.11931544 -0.30568388 -0.1311468 -0.11963515 -0.3508451 0.43589708 -0.22010659 0.30163813
-0.37598473 -0.051428296 -0.029491035 -0.1392608 0.51791835 0.21222211 -0.42266822 -0.07748494
-0.016965875 0.10068581 -0.105221085 0.037965618 -0.21546923 -0.45314044 0.052935753 -0.4333345
0.02759859 -0.16595635 -0.11938997 0.14103176 0.36037406 -0.040347036 -0.4742925 0.12514907
-0.97331536 0.70019907 0.19461893 0.33385587 0.50201976 -0.13312347 0.41946584 -0.31636277
0.11913486 -0.03016735 -0.36848247 -0.079634435 -0.24465218 0.12008897 0.38842762 -0.11240905
0.40671247 -0.13222255 -0.26651284 0.097823225 -0.42168003 -0.6836599 -0.40118358 -0.03220177
-0.036249895 0.11230348 -0.34040874 0.10673791 0.18472321 -0.05950239 0.064418055 0.20047787
1.1863378 -0.089143 0.04168792 0.14716578 -0.07636142 0.2634353 0.0021983043 0.3353408
-0.022652471 0.09887988 -0.10568747 -0.12497079 -0.059359264 -0.59760314 0.1075181 -0.18549407
0.61593413 0.5500318 0.13589892 -0.41923517 -0.14815013 0.5385672 -0.1594659 -0.31736732
00000000: bc1a 883e 57f2 c8be 6dc5 96be 82ac abbd
00000010: ac4d 51bd b0f8 cfbe b8fc 7bbf 231c 2abe
00000020: 9acc 85be 3f13 f2bc 029d bbbd 115e 543d
00000030: f828 54be 25fa c63c fea3 0e3f 3369 78be
00000040: 3643 77bd 7293 603e dc74 d8be 0b4a b93e
00000050: 6def b6be 1bc8 133f 8bfc 37bb 6f9d 223e
00000060: 40f7 d73e e8cd 7f3d 97fc 823e 11a1 b3bb
00000070: 9201 573e fe7b c73c 269a 2c3d dc97 3d3f
00000080: 32b7 c23e 3975 0c3e 9e41 32bf bcbc 33bf
00000090: 2c50 953d ef04 d7bd c573 ab3e 199a 633c
000000a0: f1e1 333e 54af acbe c14f 37bf 0f3f 133c
000000b0: 0c95 993e 19d0 9abd 24b5 8ebe 9507 f33e
000000c0: 6e56 91be 956e 0bbe 6899 15be b44b 4d3d
000000d0: e8ad 9cbe 2ade 033c 38b9 4c3f c0a4 c9be
000000e0: 08a6 6f3e 3419 6b3f 3a65 a8bd df4f 19bf
000000f0: c26d a23d b382 c0be c86c 6ebe 97e5 663c
00000100: 8ebc 88bf 409e 133f 07b5 013f 016e 8a3f
00000110: fbdf 8abc 0ba8 3f3f 71fa 22bc 54e9 843e
00000120: d3f3 d23d ee88 4f3d c69a 613e 4fc7 e13d
00000130: 741f 3f3e 63a7 e3be 0bf1 423d c45f 7dbe
00000140: 37e1 8ebd c5b4 1a3d 93e2 e3bd 1004 05bf
00000150: 236a b5be a7a0 cebe e4ab b3be 3a28 ec3e
00000160: 7431 b8be 6533 d43e 6e58 afbc fae6 0a3e
00000170: fbd8 c73b 9758 d8bb 580d d9bd 141d b8bc
00000180: 99a1 9cbd d5db 77bf 108b eabe 6e74 3d3e
00000190: 44a9 8ebe 8aa9 1abf b1c1 c0be 8453 063c
000001a0: 7d46 7fbe 74d0 3cbd 2edc 1abe 426c 183f
000001b0: b9d3 393d 684f b3be 8c11 263e e964 8d3e
000001c0: 10f6 6bbb c194 17be 34e6 473f cee8 f1bd
000001d0: 2c77 f2bd 803c 023e 97a5 b53e 7bbb 6e3d
000001e0: bdf4 64bf 1552 f23e beb8 063f ad20 09bf
000001f0: cff7 afbe 8520 033e 7f28 213f 037f 01be
00000200: 59c8 363d aee9 82bd 2c54 3abf d0c4 4cbd
00000210: ecf6 3e3d 3a94 ce3e d06e 883d 1d32 a03c
00000220: 95b7 c7bd 8efa 78bd 068f 5ebe 0061 6b3d
00000230: 74c4 5a3e 60cd f53e 60e3 803d 396e 6c3e
00000240: 404c 893b 74a9 e9be 5404 17bf f014 8abe
00000250: 4958 1dbe 7bf2 a1be c837 9dbe c0ae 303d
00000260: e1db 8b3e 2e83 21bf 05aa c9be aa92 613e
00000270: 4a3b 44bf fe98 46bc be45 ac3e e9d9 71bc
00000280: 3b3c cdbe c71b 30be 21f9 a7bc 075d 4b3e
00000290: d6c7 923c a864 003e bfd7 fb3d 6708 4abd
000002a0: a75b f4bd 9982 9cbe 594b 06be 4603 f5bd
000002b0: f8a1 b3be e72d df3e 9f63 61be 5070 9a3e
000002c0: 1281 c0be 7aa6 52bd 2f97 f1bc 629a 0ebe
000002d0: 4c96 043f c150 593e f867 d8be 6db0 9ebd
000002e0: 05fc 8abc 5d34 ce3d 277e d7bd d681 1b3d
000002f0: f7a3 5cbe 0602 e8be 29d3 583d 05de ddbe
00000300: 7016 e23c 76f0 29be bb82 f4bd a16a 103e
00000310: f382 b83e ef42 25bd 77d6 f2be 1427 003e
00000320: 322b 79bf 3f40 333f 2f4a 473e 28ef aa3e
00000330: 5e84 003f 8551 08be 3ac4 d63e 4dfa a1be
00000340: fafc f33d 8521 f7bc bca9 bcbe 6117 a3bd
00000350: 1a86 7abe 35f1 f53d fcdf c63e b736 e6bd
00000360: 9e3c d03e 5965 07be 5f74 88be 8b57 c83d
00000370: 72e6 d7be 5604 2fbf ef67 cdbe 01e6 03bd
00000380: c57a 14bd 5eff e53d 0e4a aebe 6899 da3d
00000390: 1528 3d3e c7b8 73bd 9ded 833d 124a 4d3e
000003a0: ebd9 973f 9b90 b6bd f4c0 2a3d a0b2 163e
000003b0: 6063 9cbd fee0 863e 6d11 103b cab1 ab3e
000003c0: ad91 b9bc 8981 ca3d ac72 d8bd b0f0 ffbd
000003d0: b322 73bd 85fc 18bf 7332 dc3d 28f2 3dbe
000003e0: dcad 1d3f e2ce 0c3f 1629 0b3e fea5 d6be
000003f0: abb4 17be 8adf 093f 074b 23be f87d a2be
