catkin_ws/src/dnn_mpc/output_dir/rpyth_mpc/f450/weights/wt_layers_2.npy (npy, 16512 bytes, 1 tensors)

array f4 [64, 64]
00000000: 9126 3fbe 57ca 8c3e 5e6e 343f 45fa 6a3e
00000010: 2188 a13f 1328 e3bd be83 d5be b32a 5fbe
00000020: ceba 7e3e 5b0f ff3e 356c da3e 6a6e 05bd
00000030: 2300 1fbf 6f28 8dbd e5cc 053f 3dff abbe
00000040: 0158 db3c 4714 423e 0a3c 8a3d d19d e43e
00000050: 6366 033f 415c f6be b4d4 2d3f 54d7 d7be
00000060: f171 8fbe abad 2e3d 8686 5b3e 7f32 773d
00000070: 5717 523e d2c2 9cbe a6c7 07bf 4b0a 57bf
00000080: d0f0 093e a996 c5bd 3e86 793e 4043 99bd
00000090: 75d6 83be 1333 94bd 82d7 21be cdb2 fc3e
000000a0: 1660 f13e 8119 17bd f9bf 07be fa72 5b3e
000000b0: 6f0c 19be cb5d f0bf b600 ffbd 87f1 133f
000000c0: 7695 fabf b21d b03d 7abb 38bf 204d f03d
000000d0: 56a8 6ebf aa66 463f 7a19 0dbe efb3 afbe
000000e0: 43fb 81bd 3618 42be 8bcc 6d3d 07e3 f33c
000000f0: 6df2 be3e 690e 1ebf 676a 233e 946c a33e
00000100: cc1b fa3e c993 253e 8c17 cfbe f3fd e5bc
00000110: a5be ac3e 5472 e73e 6892 2b3f fbab f4be
00000120: c85b 1ebf 57f2 08bf 4842 03c1 29de 70bf
00000130: b26d 413f 5ba1 1a3e 8af0 363e b391 cebd
00000140: 5f48 df3e 44eb 83bf 1203 2fbe f2bd 553f
00000150: 240f 40bd ffb9 023e d8a4 8abe 38c5 823d
00000160: 4016 663e 38bb 6f3d 1454 ccbe 69d9 94be
00000170: c03f 3cbe bf9d bebe e087 5dbe dd6e cbbe
00000180: d139 31bd b8dc 12be 73fe 2e3f 2d5e e93e
00000190: 3cd0 443e 1be2 adb9 155b 423f 30bf 053f
000001a0: a1f1 0abf 5750 02bf 52cf a0be 1d95 59bf
000001b0: e1e8 43be b358 813e d567 e83e 3579 ed3e
000001c0: c527 ef3e c857 96bd bc3e f53d f854 4bbf
000001d0: c118 1bc0 4426 31be 4957 eebd f1d7 9b3d
000001e0: d53f 373e 534f 9bbe c42d 673e 5251 5d3f
000001f0: 635b cb3e e785 0e3e bd97 8cbe 6fb4 1f3e
00000200: f449 89be 1623 023f cae8 9e3d 7579 2cbf
00000210: 00eb f63d 8f30 8d3e 8ee1 35bd 920a debc
00000220: 7f58 a1be cf80 973d 878c 733f 1f9e 863e
00000230: 7ae5 0bbe bc6e dabe ab7e 01be f1d8 3bbd
00000240: 3a3a 56be eb6a 223f d0ba 66bd 4083 113f
00000250: ecb6 0cbf 2b11 8ebe 5361 2bbf 61a6 c1be
00000260: b50b 8dbe 2e1b 17bd 043d 963d 3a8a 083e
00000270: 302f 51bd 2737 aebe d6ed 853f d38d febe
00000280: 6b64 37be 5610 f7bb 16e7 563f 2047 083d
00000290: 36ea 4a3e c7f4 9ebc 8797 76bf ee5a 4a3e
000002a0: 0c8d c6be 4869 b13e d85b e5bb fe68 47bf
000002b0: a5e7 c03d 1d64 523e 0d2f 25ba 795e 273f
000002c0: b242 3ebe 0988 ae3d 7130 f03d c6f1 79be
000002d0: c9a7 593f 3edb 1f3e b5c5 f0be 199d 023e
000002e0: bf6c 473f dd96 21bd 2383 923e 84c9 bd3a
000002f0: 8c67 16be 2508 f63b a964 c6be 6b82 fe3c
00000300: b763 4dbf 1b40 8abe dc56 87bc 7c27 523e
00000310: 8e8f 413f d0d4 173d 8aca f2be 851c c7bf
00000320: 8932 db3e 9d4d 65bf 0df6 433f 7b1a 2abd
00000330: 81c8 3cbf 3465 fd3e 4d4c e1be e3a6 b83e
00000340: cbf5 03be fcd8 15be f3dc e73e 7b08 5abe
00000350: 3df5 3bbf a2eb 04be c89b acbd 3553 a63e
00000360: be1d 763f 0abf f3bd 89e8 d73d 589b 0fbf
00000370: 9bda 4dbd 207f c23c 160e 143e 8568 25bf
00000380: 3917 a73e ede6 683f 6e53 8cbf cf4d 8f3c
00000390: 8e19 033e 837c 8abe 7a86 94bf dced 5cc0
000003a0: b216 debd de16 59bd a858 4bbe e5a2 2fc0
000003b0: 0057 34bd d543 ebbe 97c9 c93e 79d6 46bf
000003c0: 3796 0dbb 7d1c e53e 21cd 3bbe d89a dc3e
000003d0: f50c 3dbf 4ba0 003e e02e a33e 2f07 7abd
000003e0: b928 05bf 2287 41be 908d 103e c216 cf3e
000003f0: 9d33 e33d 3d50 8c3d a08e 693e 3734 b7bd
-0.18667056 0.27498123 0.70480907 0.22947033 1.2619668 -0.11091628 -0.41702074 -0.21793632
0.24875948 0.49816403 0.4266068 -0.032576002 -0.62109584 -0.06892478 0.5226577 -0.3359317
0.026775362 0.18953048 0.06749733 0.44651654 0.51328105 -0.4811726 0.67902684 -0.4215647
-0.28016618 0.04264609 0.21438035 0.06035089 0.20516716 -0.30617386 -0.53039014 -0.8400008
0.13470769 -0.09647877 0.24367616 -0.0748353 -0.25749555 -0.07236304 -0.15804866 0.49355164
0.4714362 -0.036889557 -0.13256826 0.21430579 -0.1494615 -1.8778623 -0.124513075 0.57790416
-1.9576862 0.08599414 -0.72161067 0.117334604 -0.9322561 0.775004 -0.1377925 -0.34316966
-0.063467525 -0.18954548 0.058056396 0.029771341 0.3729433 -0.6174074 0.15958558 0.31918776
0.48849332 0.16169657 -0.40447652 -0.028075194 0.337392 0.45204413 0.67020273 -0.4778746
-0.618588 -0.5349478 -8.203682 -0.9408899 0.75558007 0.15100615 0.17865196 -0.10086384
0.43609902 -1.0306172 -0.17091015 0.8349296 -0.04688944 0.12766264 -0.2707889 0.06385273
0.22469425 0.058528155 -0.39907897 -0.2907212 -0.18383694 -0.37229726 -0.21633863 -0.3973302
-0.04326803 -0.1434201 0.6835701 0.45579663 0.1922006 -0.00033165593 0.7592023 0.52244854
-0.54274946 -0.5090384 -0.31408173 -0.84993154 -0.19131805 0.25262985 0.45391718 0.46381536
0.4671003 -0.07340962 0.11974856 -0.7942653 -2.4233859 -0.17299753 -0.11637742 0.07609547
0.17895444 -0.30333957 0.22576052 0.8645221 0.3971816 0.13918267 -0.27459517 0.15596174
-0.26814234 0.50834787 0.07759245 -0.6737283 0.120565414 0.2757611 -0.04440456 -0.02710465
-0.3151283 0.07397615 0.951363 0.26292512 -0.13661757 -0.4266261 -0.12645976 -0.04586119
-0.20920649 0.63444394 -0.056330502 0.56840897 -0.54966617 -0.27747473 -0.6694538 -0.3782225
-0.27547994 -0.036891155 0.073358566 0.13333979 -0.051070392 -0.34026453 1.0463207 -0.49717578
-0.179094 -0.007539789 0.8394636 0.033270955 0.19815907 -0.019403828 -0.9632496 0.1976125
-0.38779485 0.34650636 -0.006999474 -0.7789458 0.09419183 0.20546003 -0.00063012616 0.6537853
-0.1858013 0.085220404 0.117279895 -0.24408635 0.85021645 0.15610978 -0.47025838 0.1275524
0.7790031 -0.039450515 0.28615674 0.0014479612 -0.14687937 0.007508295 -0.38748673 0.031068048
-0.8023028 -0.27002034 -0.01652091 0.20522875 0.7560967 0.03706819 -0.4742015 -1.5555578
0.42811993 -0.89571553 0.7654732 -0.04152916 -0.73743445 0.49491274 -0.44003525 0.36064824
-0.12886731 -0.14633554 0.45285758 -0.21292298 -0.7342108 -0.12980512 -0.084281504 0.32485357
0.9613913 -0.11901672 0.105423994 -0.5609641 -0.050257307 0.023742259 0.14458498 -0.6461261
0.32634905 0.90977365 -1.0962961 0.017493157 0.12802717 -0.2704812 -1.1603539 -3.4520178
-0.108441725 -0.053000323 -0.19858038 -2.7443173 -0.044028282 -0.4595019 0.39411613 -0.7767101
-0.0021604428 0.44748297 -0.18339969 0.43086886 -0.73847896 0.12561147 0.318717 -0.061042007
-0.5201526 -0.18899205 0.14116502 0.4044705 0.11093829 0.06851242 0.22808313 -0.08945506
