python/wt/weights_2.npy (npy, 16512 bytes, 1 tensors)

array (column-major) f4 [64, 64]
00000000: c881 00be 9fca 493f 9731 3ebe 8613 bb3e
00000010: adf3 fcbc 5d46 803e cf14 8f3d f286 443f
00000020: 5da0 bd3d 0084 9b3d 4dc4 30bd 17de 9fbd
00000030: 85a1 5bbf 3079 f1bd 393f d43e 06fa 713d
00000040: 14f6 27bf 452d 10be 89b3 013f 8585 8e3e
00000050: f463 c3be c848 22bf bb1c 173e d722 713e
00000060: fa33 723e 074f 80be 82a7 93bd 5413 afbc
00000070: 6804 c8be f7c6 593e 31bc 0ac0 71de 8cbd
00000080: 474d 74bd 6d5e 873d b02c 1abe 8f84 4d3f
00000090: dbee e93e c70c 603b 0f58 f23e 0703 5f3e
000000a0: 6c08 27be db83 dcbd aeea 1cbf a556 75bf
000000b0: 8892 2d3e 952f cabd 6b3f 323e 2bac 3e3c
000000c0: cf7b 70be 3c26 87be 665f 32bf 5ff4 003c
000000d0: cb54 2abd d2d0 8abe be94 54be 8a14 d4be
000000e0: e87e 2dbf bbda 113e 7269 c8be 7917 80bc
000000f0: 0cb7 01bd 4d62 14bf 421e dcbd 91ee e4be
00000100: 8401 343f 9cf4 363f 7349 48be d997 5abf
00000110: b71e 593e 9846 0dbe 33a9 323e 0953 0bc0
00000120: 6530 67be c868 8ebb 99f2 4abc 25b8 fabe
00000130: 5a16 fabe 2186 083e d4dd 38bf f322 fbbd
00000140: 94d9 55be 35dc e43e 5490 a0be 0fdb dd3e
00000150: 6d07 f03d 338c a03e cd5d f3be 52b7 c83e
00000160: 21d5 f7be 2508 8dbe 06e3 263e b966 e6bf
00000170: 8332 7abe 48d1 0f3e 6ef1 1ebe 6021 e33e
00000180: 8904 7fbe 1621 acbe ac0d 24be 64a6 69be
00000190: f985 21bf 7c5a 803e 390b b4be e25f f0bd
000001a0: cff3 5abf 5487 52be 613d e7bd 2574 58c0
000001b0: 7954 70bd 568d af3d 84ac d9bf cbd2 3abe
000001c0: cbb8 a3bd 9983 07be acc7 0abf da00 92be
000001d0: cddc 83bd 0e22 1a3e d3e2 b6be 9425 63bf
000001e0: 4fbd 633e 1705 973b d82a 4dbe ba41 2b3e
000001f0: c5ac 293e 35e9 ef3e 08d1 133f d2fb 6bbe
00000200: 2976 c9bf edf1 143f a7d7 af3d 211f bebe
00000210: 7018 673d 15dd 1bbe 9466 e2be 97ea c0bf
00000220: 848e a1bd 1fdc bfbe 1018 faba 1441 16c0
00000230: 0217 8abf dd5b 64be 5eb9 223f c158 55be
00000240: 9ff4 c1be 1523 d43e e766 59bf e6f4 f0be
00000250: 5faa a5bf e394 403f 9d5d 92be dcd1 b6be
00000260: 24b2 9e3f 2f15 cabe eba9 48be 4f73 abbe
00000270: 2a02 003f 14dc 6b3c 65bb 863f 6e24 283c
00000280: da10 2dbf aa21 b33e 5df3 77be e3b5 dcbe
00000290: 10e4 253f fca9 8b3e a631 453d 4af4 c13d
000002a0: eb86 3abf 63b8 28be 6e52 663e cc84 86bc
000002b0: 0d6f dbbb 971b 933d d528 d33f c205 15c0
000002c0: 43fe 37be da52 6b3e c7a1 f13e 65ed 3abd
000002d0: 59c9 ed3d f6fa 75c0 a65c 863e 5bf6 cd3e
000002e0: 058c 9ec0 81b1 31be 1769 5b3e 9047 bcbc
000002f0: 4e99 e9bd 14f2 9ec0 4ad1 4ebf c613 99bf
00000300: bc55 52bf 0628 14c0 b218 c2bd 1e79 03be
00000310: efcd 4b3d e306 84be 2a05 12bf d28a 59bf
00000320: f3b5 6a3d ef0d 023e e24e 2f3d b285 95be
00000330: c5cd a8bf 8e83 0d3f 3007 8f3e d0da 10be
00000340: 5a5e fb3d 4590 96bf 541e 94be 44f6 963e
00000350: 1b03 3c3d 3b9a c5bd c99e 8d3e 262c 1ebf
00000360: 750b 08bd 8ba5 e03e 4f46 09be 75b4 f33e
00000370: 1c71 3b3e c321 283f a261 a93e 658a d53d
00000380: 71f2 443f a53c 4b3f 57fd 2a3f 5733 17be
00000390: b7f4 163e c1d1 d8bd 9f12 02c0 d3e5 a8bd
000003a0: 3b8b 5dbc 95af 1f3e 51f2 87bd 2c06 d53d
000003b0: c137 a4bd 2bf2 ea3d dcdf 99be 564e 823e
000003c0: f47e 17be 08d1 9f3e e4fd e33e b3af c2bd
000003d0: dcec a5bd 1e57 993e 6857 aabe f66c a43f
000003e0: 210f 7bbe 412d a13c 944e 40be 63ef d63a
000003f0: d115 683d 3b5a a3be f992 dc3d ec78 363f
-0.12549508 0.788248 -0.18573605 0.36538333 -0.030877912 0.25053683 0.06986391 0.7676841
0.092591025 0.075935364 -0.043155957 -0.07806032 -0.85793334 -0.11790693 0.41454485 0.05907633
-0.6560986 -0.14079769 0.50664574 0.27836242 -0.38162196 -0.63392305 0.14757054 0.23548447
0.2365264 -0.25060293 -0.07209684 -0.021371521 -0.39065862 0.21267305 -2.1677363 -0.06878365
-0.05964401 0.06609807 -0.1505611 0.80280393 0.45690045 0.0034187303 0.47332808 0.21778499
-0.16311806 -0.10767337 -0.6129559 -0.95835334 0.16950428 -0.09872357 0.17407005 0.011637728
-0.23484729 -0.26396358 -0.69676816 0.007870763 -0.04158477 -0.27112442 -0.20759866 -0.4142192
-0.6777177 0.14243595 -0.39142948 -0.015636193 -0.031668708 -0.57962495 -0.10747959 -0.44713262
0.7031481 0.71466994 -0.19559269 -0.8538795 0.21203123 -0.1379646 0.17447357 -2.176943
-0.22577055 -0.004345987 -0.012386941 -0.48968616 -0.48845178 0.13332416 -0.7221348 -0.122625254
-0.2088378 0.44699255 -0.31360114 0.4333119 0.11720166 0.31356964 -0.47532502 0.39202362
-0.48404792 -0.27545276 0.1629754 -1.8000098 -0.24433331 0.14044678 -0.15521786 0.443614
-0.24904074 -0.33618993 -0.1602084 -0.22817379 -0.6309505 0.25069034 -0.35164812 -0.11737038
-0.8552827 -0.20559436 -0.11291004 -3.382089 -0.05867431 0.085718796 -1.7005773 -0.18244474
-0.07994231 -0.13233794 -0.54210925 -0.28516275 -0.06438599 0.15052053 -0.35719928 -0.88729215
0.22240184 0.004608761 -0.20035875 0.16724291 0.16569813 0.4685761 0.5774083 -0.2304528
-1.5739185 0.5818165 0.08586054 -0.37133124 0.05641979 -0.15221055 -0.44218886 -1.5071591
-0.07888511 -0.37472627 -0.0019080658 -2.347722 -1.0788271 -0.22300668 0.635641 -0.20834638
-0.37881944 0.41433015 -0.8492264 -0.47061843 -1.2942618 0.75227183 -0.28587046 -0.35706985
1.2398114 -0.39469287 -0.19596069 -0.3348641 0.500033 0.014395732 1.0525938 0.010262592
-0.6760384 0.3498662 -0.2421393 -0.4310752 0.6480112 0.27278125 0.04814305 0.094704226
-0.7286212 -0.16476588 0.22492382 -0.016420744 -0.006696588 0.07182997 1.6496836 -2.3284764
-0.17968087 0.22980824 0.4719374 -0.045636553 0.1161067 -3.8434424 0.2624256 0.40227017
-4.954592 -0.17352869 0.21426807 -0.022983342 -0.11406194 -4.9670506 -0.807881 -1.1959159
-0.8216207 -2.3149428 -0.094773665 -0.12839171 0.04975694 -0.25786504 -0.5703913 -0.8497745
0.057302427 0.12700628 0.042799838 -0.29203564 -1.3187796 0.5527886 0.2793517 -0.1414597
0.122738555 -1.1762778 -0.2892939 0.2948476 0.0459014 -0.09648558 0.27660206 -0.61786115
-0.03321405 0.438763 -0.13405727 0.47598615 0.18304867 0.65676516 0.330823 0.10426787
0.76932436 0.7938941 0.66792816 -0.14765678 0.14741789 -0.105868824 -2.0323865 -0.082469605
-0.013521965 0.15594323 -0.06638015 0.10401568 -0.08018447 0.11471971 -0.30053604 0.2545039
-0.14794523 0.31214166 0.4452964 -0.09506168 -0.08101818 0.29949278 -0.3326981 1.2845752
-0.2451749 0.019674899 -0.18779975 0.0016398247 0.05666143 -0.31904778 0.1077022 0.7127826
