python/wt/weights_1.npy (npy, 2176 bytes, 1 tensors)

array (column-major) f4 [64, 8]
0	0x3d9b11db	0.07571765
1	0x3d31ca0c	0.043405578
2	0x3e2da9e9	0.16959347
3	0x3cc96758	0.024585411
4	0xbdd219da	-0.10258837
5	0x3daad549	0.08341462
6	0xbe79efa5	-0.24407823
7	0x3ccb5751	0.02482191
8	0x3eadaca6	0.33920783
9	0x3e477d53	0.19481401
10	0xbefc85a5	-0.49320713
11	0xbc9e4bcb	-0.01932325
12	0xbeedebe1	-0.46469024
13	0x3d8f4d74	0.06997195
14	0xbd1f086f	-0.038826402
15	0x3bc77dec	0.006088009
16	0x3e63ece9	0.22258343
17	0x3c8326fd	0.016009802
18	0x3dce093a	0.100603536
19	0xbe55c0ca	-0.20874324
20	0xbe3aa23b	-0.18225949
21	0x3c35f37d	0.011105415
22	0xbca9134d	-0.020639086
23	0xbd96cc01	-0.073631294
24	0x3d808cc8	0.06276852
25	0x3e359c54	0.17735416
26	0x3eb6ab9c	0.35677803
27	0xbe07721f	-0.13227127
28	0x3c39c0cd	0.011337471
29	0xbf570b84	-0.84001946
30	0x3d627cd4	0.055294827
31	0xbf29c88c	-0.66321635
32	0x3e967a55	0.29390207
33	0xbee0ffa6	-0.43945044
34	0x3e55e1fc	0.20886987
35	0x3dff8c98	0.12477988
36	0xbe46b3a4	-0.19404465
37	0x3df29f9d	0.1184685
38	0x3c2a72ad	0.010403317
39	0xbee632c5	-0.4496061
40	0xbdfa4b9e	-0.12221454
41	0x3d098426	0.033573292
42	0x3d24c070	0.040222585
43	0xbe436492	-0.19081333
44	0x3cd9cee6	0.026587915
45	0xbb72a0a8	-0.0037022028
46	0xbbd4176b	-0.006472518
47	0x3da56a17	0.08076876
48	0xbd28e534	-0.04123421
49	0xbe40323b	-0.18769161
50	0xbe17b07e	-0.1481342
51	0x3e00722a	0.1254355
52	0x3d911689	0.07084376
53	0x3d2e6344	0.042575136
54	0x3d7ca25e	0.061678283
55	0x3bde6327	0.006786722
56	0xbd95c0c5	-0.073121585
57	0xbe9c7dca	-0.3056472
58	0xbcabb809	-0.020961778
59	0xbdb8b004	-0.09017947
60	0xbcb8e243	-0.022568827
61	0xbdd55379	-0.10416312
62	0xbe0689d3	-0.13138513
63	0x3bcd5550	0.0062662736
64	0xbdd50575	-0.104014315
65	0xbf26f164	-0.6521208
66	0xbf3ee94f	-0.7457475
67	0x3e6dedfb	0.23235314
68	0xbc556934	-0.013025571
69	0xbc8df762	-0.017329875
70	0xbde6e042	-0.112732425
71	0xbea196da	-0.31560403
72	0x3bc6282f	0.0060472707
73	0x3dd40530	0.10352552
74	0x3d4b2a03	0.049600612
75	0x3e095b91	0.13413836
76	0x3e7fd2dc	0.2498278
77	0xbe96bc15	-0.2944037
78	0x39017dec	0.00012349308
79	0xbf4b5c8a	-0.7943808
80	0x3d33e60c	0.04392056
81	0x3eff5ecd	0.49877015
82	0x3f271454	0.65265393
83	0xbd522b4f	-0.051310834
84	0xbcbd27cb	-0.023090264
85	0x3e03d7b4	0.12875253
86	0xbe2e8704	-0.17043692
87	0xbe9e0c90	-0.3086896
88	0x3d76239e	0.06009256
89	0xbcbc77fa	-0.023006428
90	0x3dc3a48a	0.09552868
91	0x3f0b0c96	0.5431608
92	0xbc5e03e7	-0.013550735
93	0xbb11666b	-0.002218629
94	0x3d975227	0.07388716
95	0x3b6a4908	0.0035749096
96	0xbe34543b	-0.17610256
97	0xbe07012d	-0.13184042
98	0xbecb9de6	-0.39768904
99	0xbeae6333	-0.34060058
100	0xbeb41c88	-0.35178018
101	0xbde598ab	-0.1121076
102	0xbda20c93	-0.079125546
103	0xbe9e8b23	-0.30965528
104	0xbf6fa471	-0.9361029
105	0xbd2e9528	-0.042622715
106	0x3f1292e8	0.5725541
107	0xbe8d2525	-0.27567402
108	0x3d5fe704	0.054663673
109	0xbc4e1ab7	-0.0125796115
110	0x3f64681c	0.8922136
111	0xbdc674b8	-0.09690231
112	0x3ef04492	0.46927315
113	0xbd3453c2	-0.04402519
114	0x3f3f564e	0.74741066
115	0xbc987f8e	-0.01861551
116	0x3dd854ee	0.10563074
117	0x3d210dc3	0.039319765
118	0xbd2a7637	-0.041616645
119	0x3f697dae	0.91207397
120	0x3f12ceda	0.5734688
121	0x3ea573b1	0.32314828
122	0xbb6b6367	-0.0035917403
123	0x3c6d7134	0.014492322
124	0xbe334e0f	-0.17510246
125	0xbd9d1811	-0.07670606
126	0x3cd6a4b2	0.02620158
127	0xbe2ed755	-0.1707433
128	0xbd329cf8	-0.04360673
129	0xbe5fc380	-0.21851921
130	0xbec9aa5c	-0.39387786
131	0xbe9e20ab	-0.308843
132	0x3d8b1b09	0.06792266
133	0xbe000bf3	-0.12504558
134	0xbe08634d	-0.1331913
135	0xbf122355	-0.5708516
136	0x3c5aa85b	0.013345803
137	0x3a8718ae	0.0010307038
138	0xbe64c874	-0.22342092
139	0xbe663aab	-0.22483318
140	0x3e342efe	0.17596051
141	0xbdf4c9ef	-0.11952578
142	0xbc2b5271	-0.010456667
143	0xbc1da052	-0.009620743
144	0x3eaf0fcf	0.34191748
145	0xbf8292fd	-1.0201107
146	0xbe8c6134	-0.2741791
147	0x3e45f47c	0.19331545
148	0xbddfe410	-0.10932171
149	0x3eee9263	0.4659606
150	0xbe8ded0e	-0.2771992
151	0x3dab2f07	0.08358579
152	0xbd1bae7f	-0.03800821
153	0xbebf3c01	-0.37350467
154	0x3e20e294	0.15711433
155	0xbdec9910	-0.11552632
156	0xbd5c125b	-0.053728443
157	0x3c368129	0.011139193
158	0xbdb562d8	-0.088567436
159	0x3bd75d07	0.006572369
160	0x3e2dcabf	0.16971873
161	0xbe15b25f	-0.14618824
162	0xbd0749ee	-0.03302949
163	0xbdb77bd1	-0.08959163
164	0x3bfbfea0	0.007690266
165	0xbe86a839	-0.2630022
166	0xbdb13603	-0.0865288
167	0x3e445175	0.19171698
168	0x3e3706d0	0.17873693
169	0xbd968f67	-0.073515706
170	0x3e92ad9e	0.28648084
171	0xbe704686	-0.23464403
172	0xbe7c56cc	-0.24642485
173	0xbbf843a1	-0.0075764214
174	0xbb6c4fe2	-0.0036058356
175	0xbc8c4115	-0.017120877
176	0xbdb3dd8d	-0.08782492
177	0xbe855ca3	-0.2604724
178	0xbea9ee37	-0.33189556
179	0x3e3ae18c	0.18250102
180	0x3e999302	0.2999497
181	0xbebad1a7	-0.36488077
182	0xbe951f52	-0.29125458
183	0xbba7ee07	-0.0051248106
184	0x3dafb57f	0.085795395
185	0xbe7ebabf	-0.24875925
186	0xbefa144c	-0.4884361
187	0xbeea47c9	-0.45757893
188	0x3ee08eb2	0.43858868
189	0xbe333780	-0.1750164
190	0xbd184478	-0.037174672
191	0xbe0e2cd0	-0.13884282
192	0xbeaac091	-0.33350042
193	0x3dbbdb51	0.09172691
194	0x3e2c5828	0.16830504
195	0xbc4b305a	-0.012401665
196	0xbd0a8e62	-0.033827193
197	0xbef68855	-0.48150888
198	0xbe80bacd	-0.25142518
199	0x3b93c143	0.0045091226
200	0x3ea93b4b	0.3305305
201	0x3dbb0ddf	0.09133505
202	0xbe580204	-0.21094519
203	0x3dab5ccb	0.08367308
204	0x3ed1bff1	0.40966752
205	0x3edeec58	0.4353969
206	0x3c905e8c	0.017623208
207	0xbc05c449	-0.008164474
208	0xbdc06652	-0.09394516
209	0xbca55b14	-0.020185031
210	0xbc5f9c04	-0.013648037
211	0xbd9347bf	-0.07191419
212	0x3eb10422	0.34573466
213	0x3c9a663c	0.018847577
214	0x3f033ee7	0.51267856
215	0xbd3c2d85	-0.04594185
216	0xbcb33ae5	-0.021878669
217	0x3ddebfff	0.10876464
218	0xbf378360	-0.7168484
219	0xbe090586	-0.13381013
220	0x3ba9c93a	0.005181459
221	0xbef30b70	-0.47469664
222	0x3d8747ad	0.06605468
223	0xbede6704	-0.4343797
224	0xbdef94d9	-0.11698312
225	0xbe3b28e1	-0.18277313
226	0x3ee2ec38	0.44320846
227	0xbda617be	-0.08109997
228	0x3cde3c75	0.027128438
229	0x3cf63d3c	0.030058496
230	0x3d698302	0.057009704
231	0xbe177722	-0.1479154
232	0xbd0112fa	-0.031512238
233	0x3dc6493f	0.09681939
234	0x3f2546f7	0.6456141
235	0xbe05b98b	-0.1305906
236	0x3ea99d6e	0.33127922
237	0x3ce78bf1	0.028264971
238	0xbc08369b	-0.0083138
239	0xbe45d5c7	-0.19319831
240	0x3cc95656	0.024577301
241	0x3d658f5b	0.056044918
242	0xbc0b89f6	-0.008516779
243	0x3f273cbc	0.6532705
244	0x3d6b30d5	0.057419617
245	0x3d61f4ce	0.055165105
246	0xbe11881a	-0.14212075
247	0x3c3d25fa	0.011544699
248	0x3d214db4	0.039380744
249	0xbe72454b	-0.23659246
250	0xbdf92a3e	-0.1216626
251	0xbce66bf4	-0.028127648
252	0xbc384b9c	-0.011248495
253	0xbea5dbc6	-0.32394236
254	0xbf143b73	-0.5790321
255	0x3c344c25	0.011004482
