python/wt/weights_3.npy (npy, 896 bytes, 1 tensors)

array (column-major) f4 [3, 64]
000000 b5 1e ed bb 49 d5 9c ba b7 b3 5f 3e ac ea bb 3c
       -0.0072363266 -0.0011965419 0.218459 0.022939049
000010 26 45 c7 bb 52 ea 0e 3e 77 76 f3 3c e8 2c f9 bc
       -0.006081241 0.13956574 0.029719574 -0.03041692
000020 e6 c1 8d 3c 0e b5 2d bc 8d a9 8d 3c 50 21 a3 bd
       0.017304372 -0.010602249 0.017292762 -0.07965338
000030 bc 58 c4 3a 99 5a e7 3b 99 97 41 3f 71 25 1d bc
       0.0014980058 0.0070603606 0.75621945 -0.009591446
000040 f5 e6 31 3d f9 34 55 3c ce 6f 0a bd 3e 6a c2 bb
       0.04343315 0.013013118 -0.03379803 -0.005933075
000050 8e d0 68 bd 65 ab 0b 3b 13 e9 92 3b 2d b7 c4 bd
       -0.05683952 0.0021311876 0.004483351 -0.096052505
000060 fe 61 1e bc f8 ec 89 3d 6d f8 10 be c8 e8 38 bb
       -0.009666918 0.06734651 -0.14157267 -0.002821492
000070 21 96 04 3b a8 e2 8b 3e 90 e5 54 3c 3d e2 93 bd
       0.0020231085 0.27321362 0.012994185 -0.07220886
000080 9f 90 79 be 66 9d 44 ba 50 bf 1b bb 21 4c 8b be
       -0.24371575 -0.0007500261 -0.0023765154 -0.2720652
000090 d4 52 ee 3b 26 e9 18 3c 8b 51 ef bd 7f c0 d8 bb
       0.0072730575 0.009332931 -0.11685475 -0.006614744
0000a0 a6 ac 13 3b 65 a2 f0 bd 06 6d 88 bc 23 3f e4 bc
       0.0022533326 -0.11749724 -0.016653549 -0.027862137
0000b0 65 d3 8b 3e 17 08 39 be 65 ce 72 ba 00 be b7 bd
       0.2730972 -0.18069492 -0.00092623226 -0.089717865
0000c0 d2 31 6e 3b 8e 3e 04 ba f5 ce 1e 3f fd 15 0c 3c
       0.0036345613 -0.0005044722 0.6203454 0.008550164
0000d0 cd 47 28 3a ae 42 0b be 13 15 43 bc af 7d 76 3c
       0.00064193906 -0.13599655 -0.01190688 0.015044614
0000e0 f6 b2 12 3e 08 8b 91 3b 29 d2 39 ba cd a7 de bd
       0.1432608 0.0044416226 -0.0007088506 -0.10871849
0000f0 ac 74 09 3b 3d 82 5b 3b 2f 8b d9 3f 8f b7 fa bb
       0.0020974083 0.0033494376 1.69956 -0.0076512764
000100 a6 8a c2 bc d3 f8 d9 3d a5 00 eb bb e6 da dd ba
       -0.023747753 0.106431626 -0.0071717077 -0.0016926199
000110 8a 7a 57 3f f3 2e 20 bc 56 64 0c bc ae 8a 66 3d
       0.84171355 -0.009776819 -0.008568844 0.0562846
000120 d6 79 84 3c e2 1f ee ba 87 28 c5 bd 63 20 db ba
       0.016171377 -0.0018167461 -0.096268706 -0.0016718026
000130 8e 0c aa bb 4c 32 ad 3e 45 8f 49 bd 5a da 0a bd
       -0.005189485 0.33827436 -0.049208898 -0.033899643
000140 4f 4d a3 40 b4 c0 f1 3c 18 6d 34 3a 70 3e ad 3c
       5.103187 0.029510833 0.00068827113 0.021147937
000150 61 8f 92 bc 2c bc 77 bc 4a 12 f2 3d 11 cd a8 3c
       -0.017890634 -0.015120547 0.118198946 0.020605596
000160 87 2a ba 3b 57 d6 8a 3d 37 50 46 3a 15 17 a3 3b
       0.005681339 0.06779163 0.00075650535 0.004977117
000170 cb 54 61 3e f2 4f a0 39 6c b7 e0 39 0a a0 c1 3d
       0.22005002 0.00030577142 0.0004286127 0.09454353
000180 12 5a aa 3c 55 d7 e6 bc a5 1d 8b bd dd 4f 28 3c
       0.020794902 -0.02817885 -0.067927636 0.010272947
000190 6a 51 63 3c 18 9c 6b 3c 7a ca a2 3b d9 26 db bc
       0.013874391 0.014380477 0.0049679847 -0.026751922
0001a0 bd b9 9c 3f 07 87 96 3c 9c 81 02 3c 5d 55 5a 3c
       1.2244183 0.018374933 0.007965472 0.013326016
0001b0 8e 02 46 bc e0 fc d4 3c ca ec 23 3d 20 98 a6 3d
       -0.01208557 0.025999486 0.04002074 0.08134484
0001c0 13 19 9d ba f6 5b 27 3d 6d 65 ca bc a9 ba 5c 3c
       -0.0011985622 0.040859185 -0.024706567 0.013472238
0001d0 97 65 1c bd be ee 63 ba a9 ca 7f 3d be 41 c4 ba
       -0.03818282 -0.0008694938 0.06244913 -0.0014973206
0001e0 22 84 1f bc 4b db 8a 3b e8 30 e7 bd b0 23 83 3d
       -0.009736093 0.0042375675 -0.11288625 0.06403291
0001f0 31 13 2b 3c 74 3b 8b bd 13 6e 7d 3b a5 e7 0b bd
       0.010441587 -0.06798449 0.0038670346 -0.03415646
000200 2d 80 26 3d af fa 14 bc 7d ce c0 3b 39 62 c8 be
       0.04064958 -0.009092971 0.0058839903 -0.39137438
000210 30 42 72 bd d1 fa ce bb f3 d6 93 3d b3 ae a2 3b
       -0.059145153 -0.0063165207 0.07218733 0.0049646734
000220 3c cc 3e bd 30 64 70 bc ab 10 9d bd bd bf d2 3d
       -0.04658149 -0.014672324 -0.07669195 0.102904774
000230 f6 16 f7 bd ab bc c0 3c dc d5 52 bb ac aa d7 3d
       -0.12064926 0.023527464 -0.0032170927 0.105306
000240 62 82 db 3b db 11 c1 bd 6b 25 eb bd 09 3f 87 bd
       0.0066988925 -0.09427234 -0.11481746 -0.0660382
000250 5a 1e 22 bb 95 6d ae bd fc 6b 8e bc 35 3b 79 bc
       -0.002473733 -0.08516995 -0.017385475 -0.01521187
000260 cf 19 37 bd 92 79 14 3e a2 f6 58 bc 9c a1 a1 3c
       -0.044702347 0.144995 -0.013242396 0.019730382
000270 da 42 11 3d 41 58 2c be 51 0d 01 be 72 48 0b bc
       0.035464145 -0.16830541 -0.12602736 -0.008501159
000280 b3 a4 eb bc ba 9a 41 3b f0 9f 30 b9 e8 d2 fb bc
       -0.028765058 0.0029541687 -0.0001684425 -0.030740216
000290 62 88 80 bd 4f 46 0b bc bb 13 69 3b 42 82 0a be
       -0.06276013 -0.00850065 0.0035564739 -0.13526252
0002a0 a0 d0 f3 ba 0f 95 c7 3b d5 b2 84 3d e5 c6 22 3c
       -0.0018601604 0.006090767 0.06479422 0.009935115
0002b0 ea e8 90 bd 4d 03 81 bb 5c 22 d2 38 01 7b d9 3c
       -0.07075675 -0.003937161 0.0001001998 0.02654791
0002c0 43 18 93 3c 6d df a0 bb 1d 93 6c bd 71 16 1d bb
       0.017955905 -0.004909447 -0.057757486 -0.0023969675
0002d0 cf 7f d2 bb 67 7c bd 3d 0f b8 1e ba f4 83 01 3c
       -0.0064239274 0.092522435 -0.00060546485 0.007904995
0002e0 9a 6d 5e b9 93 35 e1 3e b3 c2 0a 3c 16 19 51 bc
       -0.000212124 0.43986186 0.0084692715 -0.012762329
0002f0 14 be 0f be 97 58 04 3a c6 6a 78 b8 4b 61 97 40
       -0.14037353 0.00050486013 -5.9227248e-05 4.7306266
